model/model.pth (torch, 17216 bytes, 4 tensors)

linear1.weight f4 [256, 11]
000000 61 9e 8e bc 69 ab 85 be 82 b7 95 be 6d db 82 3e
       -0.017409505 -0.26107338 -0.29241568 0.25558034
000010 fc 18 92 be fd 84 6b be db d3 16 3e 77 8c 88 bd
       -0.28534687 -0.2299995 0.14729254 -0.066674165
000020 1b 8c 7b 3e 46 df b9 3d cb d4 4f bc 18 36 d1 3d
       0.24565165 0.09075789 -0.012685011 0.10215396
000030 38 c0 37 bb 81 96 ef bd 82 fc 3f be 81 c2 94 bd
       -0.0028038155 -0.11698628 -0.18748668 -0.07263661
000040 d7 89 26 3e a3 4b 16 be cb 38 7f 3e 2e a2 ce 3b
       0.16263519 -0.1467729 0.24924009 0.0063059544
000050 27 cc 55 3d f3 83 a6 bd 07 34 1f be 44 dd 22 be
       0.052196648 -0.08130636 -0.1554719 -0.15904719
000060 93 e8 96 be b3 8d 12 be 9b bf 87 bd 81 a0 93 3e
       -0.29474315 -0.14311866 -0.06628343 0.28833392
000070 81 dd 84 3e 4c e0 99 3e 6b 05 48 be 58 1b 8f 3d
       0.25950244 0.30053937 -0.19533317 0.06987637
000080 c0 88 3f 3e 68 64 4f 3d 2d 74 99 be 14 ae 61 3d
       0.1870451 0.050632864 -0.29971448 0.055097654
000090 fa aa 77 be 86 eb 90 be 21 a1 26 3e c4 9c e3 bd
       -0.24186316 -0.2830469 0.16272403 -0.11113885
0000a0 71 a4 21 be 9f 03 a3 be 90 48 da bd 0d a3 3e bc
       -0.15785386 -0.318387 -0.106583714 -0.011635554
0000b0 ff 14 70 3e d2 8a ed 3d e2 ca 6e 3e 53 41 23 be
       0.2344551 0.115987435 0.23319581 -0.15942888
0000c0 15 63 5b 3d dc 33 cc bd e4 d1 e0 3b 6a 1a 9e bd
       0.05356129 -0.09970829 0.0068609584 -0.07719882
0000d0 e5 ca 77 be bc d3 92 bd 37 80 27 3e 62 09 7c be
       -0.24198492 -0.071692914 0.16357504 -0.24612954
0000e0 04 dd 88 be d0 ad 40 3d 94 71 db 3d 78 26 0f 3e
       -0.26731122 0.04704076 0.10715023 0.13979518
0000f0 14 a7 2c 3e 88 36 a0 bd 80 a6 be 3c c7 ea 80 be
       0.1686061 -0.07822901 0.023272753 -0.2517912
000100 83 ea 80 be 70 dc 5c 3d 68 e2 23 3e b4 40 82 bd
       -0.25178918 0.053921163 0.16004336 -0.063599974
000110 d9 de 8c be 42 07 a3 3d 2a 77 92 be 46 e9 71 be
       -0.2751377 0.07960369 -0.2860654 -0.23624143
000120 6c 48 d2 bd 13 fd 56 be 67 21 a3 3d 59 15 86 be
       -0.102677196 -0.20994978 0.07965355 -0.26188162
000130 5d 01 0a 3e 9c 61 b4 bd 4b 0d c7 3c a1 bd b6 3d
       0.13477083 -0.0880768 0.02429833 0.089228876
000140 e3 5f fe 3c c0 ce b9 bb 73 c0 df 3d 7a d3 33 3e
       0.031051582 -0.0056703985 0.10925379 0.1756114
000150 55 63 95 3d f8 93 95 3d ed f2 9a 3d 3f d6 e1 ba
       0.07294337 0.073036134 0.07565866 -0.0017229988
000160 d7 a9 10 3e c0 97 b9 3c d3 45 32 3e b9 7b 60 be
       0.14127289 0.022655368 0.17409448 -0.21922196
000170 02 74 7d 3e 51 58 89 3e 2a 22 96 be e3 a4 2e 3e
       0.24751285 0.26825193 -0.2932294 0.17055087
000180 72 b3 80 3c a8 a0 79 3e 63 53 87 be 60 c3 a6 3c
       0.015710566 0.24377692 -0.26430807 0.020356834
000190 4b ae 84 bd 6b b5 94 3e 9f da 93 bd 33 89 db bd
       -0.06478556 0.2904466 -0.07219433 -0.10719528
0001a0 d6 1e 4e bd 2c 01 68 3e 15 67 8f be f0 0a 68 3e
       -0.050322376 0.22656697 -0.28008333 0.22660422
0001b0 d4 65 89 3e b8 0b 6b 3e ad 6c 76 be 88 f6 96 be
       0.268355 0.22953689 -0.24064894 -0.29484963
0001c0 ec 09 64 be 65 3b 92 3e fa 2c d5 3a 01 a7 37 3e
       -0.2226941 0.2856094 0.0016264014 0.179348
0001d0 4c f6 bd bd 1e 1a 32 3e 63 dc 12 3e 22 d4 b4 bd
       -0.09275493 0.17392775 0.14341883 -0.088295236
0001e0 d4 a2 5a bd b7 77 19 be fe 9b 8e 3e 04 4c a8 3d
       -0.05337794 -0.14987074 0.27853388 0.08217624
0001f0 fa 63 8a 3e 88 a0 8e bd fb 48 06 bd 26 9e be bd
       0.270294 -0.06964213 -0.032784443 -0.09307508
000200 76 a4 0b 3e 09 32 7e bd 60 b6 2f bd 40 67 41 bd
       0.13636956 -0.062059436 -0.042898536 -0.047217607
000210 a9 ef 7d 3e 6c b2 59 be 87 4e 1a be 59 74 de 3d
       0.24798454 -0.21259469 -0.15069018 0.10862035
000220 a0 a3 f3 bc 92 a0 b5 bd 9c cb 12 3e fd 7d 21 be
       -0.029741108 -0.08868517 0.14335483 -0.15770717
000230 93 fd dd bd 2a e2 99 3d d4 91 b9 bd 87 74 df 3d
       -0.10839381 0.075138405 -0.09061018 0.10910898
000240 99 15 08 3e 21 d3 92 be 0a aa 9e 3d 75 ca 8c be
       0.13289489 -0.28676704 0.07747276 -0.27498212
000250 c7 af 62 3e 6f bd 88 3d 07 51 3d be d9 15 73 3e
       0.22137366 0.066767566 -0.1848794 0.23738803
000260 85 8d 77 3e 7a 5d 33 bd 6e 5b a0 bd 83 55 40 3e
       0.24175079 -0.043790318 -0.07829939 0.1878262
000270 99 78 45 be 3b 3a f5 3d f2 ed 36 3e e2 45 fd bd
       -0.19284286 0.11973997 0.17864206 -0.12366845
000280 9f 39 3f 3c fe e9 02 be 00 da 83 3e 35 10 3c bd
       0.011671453 -0.12784573 0.25752258 -0.045913894
000290 8e 94 98 3e e0 7b 3b be 3b b6 ce 3d aa 29 7b 3e
       0.29800838 -0.18308973 0.100933515 0.24527612
0002a0 0a 68 5d 3e 8f 6d 8a 3e 08 94 95 be f2 f6 e0 3d
       0.21621719 0.27036712 -0.292145 0.10984601
0002b0 70 b4 fa 3d 36 93 75 3e 7c 9e 38 be 1e 49 78 be
       0.12241447 0.23981938 -0.18029207 -0.24246642
0002c0 18 1b 2f be 44 1c 77 be 0f b1 95 3d cb 83 6b be
       -0.17100179 -0.24131876 0.07309162 -0.22999494
0002d0 75 89 93 be 60 5a eb 3d aa ad 2d 3d fd ad 87 be
       -0.2881581 0.11491847 0.042401947 -0.2649993
0002e0 9a 26 db 3d 6b 59 73 3e 25 75 11 bd fd e3 88 3e
       0.10700722 0.23764579 -0.03551211 0.2673644
0002f0 f1 3a dd 3d ad 3f 86 bc b0 69 62 3e 41 8c 90 3e
       0.10802258 -0.016387785 0.22110629 0.28232005
000300 df c3 78 be 25 83 86 3d d7 c6 fd 3c 50 9f 23 be
       -0.24293469 0.065679826 0.030978603 -0.15978742
000310 2c 78 54 3e aa 0b 15 3d ad 33 92 3d 74 06 9d 3d
       0.20748967 0.036388077 0.071387626 0.076672465
000320 68 84 00 3e f7 87 53 be 0c 0c bf ba ed 68 80 3e
       0.12550509 -0.20657335 -0.0014575734 0.25080052
000330 21 99 ae 3d a4 24 16 3e 02 dd e0 bd 0b 2a 73 3e
       0.08525301 0.14662415 -0.10979654 0.23746507
000340 3c 91 aa bd 5d c4 8f 3e 38 aa 03 be a1 37 50 be
       -0.083284825 0.280795 -0.12857902 -0.2033372
000350 6b ac 5f 3e 89 1e d2 3d 39 f2 72 3e 1c e5 3f 3e
       0.21843116 0.1025973 0.23725213 0.18739742
000360 2e 87 05 bc f9 a2 03 be b1 31 a7 3e 59 df 46 be
       -0.008149905 -0.12855138 0.326551 -0.19421138
000370 a7 a8 79 be 2a 17 53 be 5f b7 74 3d d0 d6 a2 3d
       -0.24380742 -0.20614305 0.05974519 0.079511285
000380 e3 43 a5 3e 73 cf 9f bc 28 9c 16 bc c7 14 b5 3d
       0.32278356 -0.0195081 -0.009192504 0.088418536
000390 41 b7 1a 3e b5 cc ba bc ef eb 8b 3e e7 39 93 3d
       0.15108968 -0.02280269 0.2732844 0.07188778
0003a0 48 42 0c 3d 15 ea 15 3e c9 2c 88 bd 9d 5f 1e be
       0.0342429 0.14640076 -0.06649167 -0.15466161
0003b0 16 00 10 3e c1 1b 12 be 36 8a a7 3d 24 3d 5e bc
       0.14062533 -0.142684 0.081806585 -0.013564382
0003c0 bd b3 06 bd 7d 87 f0 bc 83 03 89 be 30 ed 19 3d
       -0.032886256 -0.02936148 -0.26760492 0.037579715
0003d0 5b df 37 bd 22 a0 65 3e 86 cb 88 bd c8 28 57 3d
       -0.044890743 0.22424367 -0.06679444 0.052529126
0003e0 87 2c 21 bd a5 d1 3f be 80 f1 3b 3c cb b1 87 be
       -0.039349105 -0.18732317 0.011471152 -0.26502833
0003f0 3f c1 72 be 15 4a 3d 3e 22 bb 91 3e 5b b2 5e 3e
       -0.2370653 0.18485291 0.28463084 0.21747725

linear1.bias f4 [256]
000000 c6 6d 6f be 69 70 f3 3d 6c 2d 4a 3e 0d 98 ae 3d
       -0.23381719 0.11886675 0.1974389 0.08525095
000010 e6 3d 4b 3e 6f 7d 80 be d0 8e 82 3e 37 b5 9d be
       0.19847831 -0.25095698 0.25499582 -0.30802318
000020 f5 90 3d bd 69 78 35 3e 53 44 fc bc 42 17 da 3d
       -0.04628082 0.17721714 -0.030794298 0.10648967
000030 66 8d 8b be 3b 62 bf 3d 5d 70 1c 3d f8 c2 ad bd
       -0.27256316 0.09344908 0.038193095 -0.08484453
000040 e2 11 98 3d 3b 90 1d be 77 60 8f 3b 3b f5 8e 3e
       0.07425286 -0.15387051 0.004375513 0.2792147
000050 d3 de 83 be f7 a9 9c 3d 85 89 60 3c 16 d9 34 3e
       -0.2575594 0.07649606 0.013704662 0.17660937
000060 5c c9 b3 bd 73 81 46 bd 35 02 5e 3e 3b 6c 93 bd
       -0.08778641 -0.048463296 0.2168053 -0.07198378
000070 62 e3 9b be 4f e5 15 3d 3c 53 c0 bd f9 4d 69 be
       -0.30446917 0.03659564 -0.09390876 -0.2278365
000080 1d ae 1c 3e ca 88 ec 3d 2f f8 64 bd 9d 26 81 be
       0.15300794 0.11549528 -0.05590075 -0.25224772
000090 2e bd 1e 3e 66 40 64 be ed d4 85 be 27 cc 2c 3e
       0.15501854 -0.22290191 -0.26139012 0.16874753
0000a0 6d 5f 68 3e 22 59 4b 3d 75 f3 68 bd 6e c3 27 be
       0.22692652 0.04964555 -0.056872804 -0.16383144
0000b0 16 17 0f be 0d a1 62 be 0b 56 5e 3e bb 98 1f be
       -0.1397365 -0.22131748 0.2171251 -0.15585606
0000c0 92 d2 5c 3a b7 37 27 3e 53 5d 41 bd cd 8c 66 3e
       0.00084237114 0.16329847 -0.04720814 0.22514649
0000d0 fa 19 15 3e e7 1c d0 3d 4d bc 79 3e 00 56 29 be
       0.1456069 0.10161763 0.24388237 -0.16536713
0000e0 05 6a a3 3d 3a a8 65 be 7b fa 78 be 1a af 7b 3c
       0.07979206 -0.22427455 -0.243143 0.015361572
0000f0 12 49 90 3c 00 66 46 3d 93 0c 3d 3e ca 0e 9d be
       0.017612968 0.04843712 0.18461828 -0.30675346
000100 21 70 6d 3e 64 d4 03 3e e4 fd 8c be 72 a6 37 3e
       0.23187305 0.1287399 -0.27537453 0.17934588
000110 e9 db e2 bd 6d 79 18 3d a0 e3 08 3d ab 7c 05 be
       -0.11077101 0.037225176 0.033420205 -0.13035838
000120 ad a9 1f 3b dc 3d fb bd 1f db 27 be 61 8f 0d 3e
       0.002436261 -0.12267658 -0.16392182 0.13824226
000130 7b e6 69 3b 70 6b 2d 3e cc e9 23 3e 4b 44 5d 3e
       0.0035690356 0.16935515 0.16007155 0.21608083
000140 65 17 43 be 31 ab 91 3e f3 21 38 3e 5b 15 66 3e
       -0.19051893 0.2845092 0.179817 0.22469084
000150 21 84 1d 3e 98 bd 76 3e 98 cf b4 3d 3f 07 e9 3d
       0.15382434 0.24095762 0.08828658 0.11378335
000160 05 76 92 3e 97 ef 72 be 05 5e b3 bd f5 3e 5e 3e
       0.28605667 -0.23724209 -0.08758167 0.21703704
000170 9e 2e 88 3e eb 6b d7 3d 68 db 23 be da 58 f5 bb
       0.26598066 0.105186306 -0.16001666 -0.0074873986
000180 b7 f4 c3 3d b5 f2 b2 3c 9f 5c 3c 3e 1a 78 d2 3d
       0.0956816 0.021844247 0.18394707 0.10276814
000190 d0 e7 01 be 74 85 04 bd 4a c9 8c be 37 14 2b be
       -0.12686086 -0.032353833 -0.2749732 -0.1670693
0001a0 d9 48 4b 3e 58 0a 76 be ac 00 e4 bc 34 b0 3e be
       0.19852008 -0.24027383 -0.027832352 -0.18621904
0001b0 a1 43 a9 bb 5f 20 95 bd 54 68 24 be 21 06 8e bd
       -0.0051655327 -0.07281565 -0.16055423 -0.06934763
0001c0 0f d9 04 3e 75 2c 41 3d cb 9a 3c be aa 6d 38 be
       0.12973426 0.04716154 -0.18418424 -0.18010584
0001d0 c2 75 99 be a5 9b e1 3d 0a 99 13 3d 3d 61 41 3e
       -0.29972655 0.11016015 0.03603462 0.1888475
0001e0 de 13 20 be 21 d3 15 3e 82 db 34 be d6 03 82 be
       -0.15632579 0.1463132 -0.1766186 -0.25393552
0001f0 3b 09 f5 bd 4e 33 5c bd ff 70 d2 bc 82 26 29 be
       -0.11964651 -0.053759865 -0.025688646 -0.16518596
000200 e6 bd 30 be 0c 71 86 3e de d9 4d bc 7d 63 6f be
       -0.1725994 0.26258123 -0.012564151 -0.23377796
000210 32 56 06 bd 7d 06 23 3e 8e 94 29 3e 32 cc 2a be
       -0.032797046 0.15920444 0.16560575 -0.16679457
000220 d8 72 d5 bd 56 89 82 3e 4a 28 a2 be 54 b0 36 3e
       -0.10422295 0.25495404 -0.31671363 0.17840701
000230 cc 10 53 3b 88 fc 37 bd c2 fa 26 3e 40 34 59 3e
       0.0032206057 -0.044918567 0.16306594 0.21211338
000240 0d f7 84 be c8 95 75 bd 5f 3c 07 be c6 f5 a0 bd
       -0.25969735 -0.059957296 -0.13206623 -0.078593776
000250 00 3c 41 3e 50 3b db bd 53 89 67 3d a5 aa 11 be
       0.18870544 -0.10704672 0.056527447 -0.14225252
000260 a6 88 37 3c 6d e7 e7 3d 96 ba 7f be f9 d9 9f be
       0.011202013 0.11323438 -0.2497352 -0.31220987
000270 44 d1 10 3e b3 42 70 be c4 be 74 3c 30 18 ea 3d
       0.14142329 -0.23462944 0.01493806 0.11430395
000280 e8 e7 df 3d de 5a eb 3d dc 20 8e 3e d8 5d 44 3e
       0.109329045 0.11491941 0.27759445 0.19176424
000290 1e 74 a1 3d e7 77 87 bd 86 70 9b be 77 b6 32 be
       0.07883476 -0.066146664 -0.30359286 -0.17452417
0002a0 33 5a fc 3d 7f fb 48 be a6 af 52 3e bf 2b e4 bc
       0.12321892 -0.19627188 0.20574817 -0.027852891
0002b0 ce c2 20 be 04 6f 70 3e d9 10 1e be ea da 0d be
       -0.15699312 0.23479849 -0.15436114 -0.1385304
0002c0 d4 5e f5 3d 33 42 09 be 5a 02 89 bc 44 6e 21 be
       0.11980978 -0.13404159 -0.016724754 -0.15764719
0002d0 e7 df a1 3d e7 d9 38 3e db 41 8e 3e f1 4e 8a 3e
       0.07904034 0.18051873 0.2778462 0.27013353
0002e0 88 33 26 bd eb 97 3d 3d 68 d8 82 be 4c 31 f8 3d
       -0.040576488 0.04628746 -0.2555573 0.12118778
0002f0 dd a9 00 bd 4d 56 c4 bd 24 92 18 3c 2d cd 51 3e
       -0.031411994 -0.09586773 0.009312186 0.20488425
000300 0c 3e 1b bd 49 4e 9c be e3 e4 4a be f2 b7 1b 3e
       -0.03790097 -0.30528477 -0.19813876 0.15206888
000310 74 46 6b 3e b7 63 73 bd 81 b3 3a be 48 ff de bd
       0.22976094 -0.059421267 -0.18232538 -0.10888535
000320 e1 62 5d 3e f8 c4 2b bd 4b e1 38 3e 69 dd 44 3e
       0.2161975 -0.04193589 0.18054692 0.19225086
000330 28 f5 28 be 78 0c ec bd d7 88 7e 3e ec d5 8f bd
       -0.1649977 -0.11525816 0.24856888 -0.07023224
000340 d9 8a 7c be fe 7e 6e 3d f4 aa 5a 3e 66 ed 49 bd
       -0.24662341 0.058226578 0.21354276 -0.049298666
000350 d2 fe 68 3e 2d f4 34 3e 5d 7e 23 3e d5 65 47 be
       0.22753456 0.1767127 0.15966173 -0.1947244
000360 88 fa 31 be c6 ab 6e 3d 8e 79 30 3e c2 4e 59 bd
       -0.17380726 0.058269285 0.1723387 -0.053053625
000370 27 c1 2b 3e 17 b3 31 3e 51 4f cf 3d 80 b9 35 3e
       0.167729 0.17353474 0.1012255 0.17746544
000380 d0 87 70 3d f7 b7 33 3e 05 5e 8c bd 1a 03 46 3e
       0.05872327 0.17550646 -0.0685387 0.1933712
000390 fc cd 17 be db d7 83 3e 1a cd f2 bd b6 74 81 bd
       -0.1482467 0.25750622 -0.11855526 -0.06321089
0003a0 c4 c6 3a 3e 98 6d 99 bd 0c bf 50 3e 07 12 6a 3e
       0.18239886 -0.074916065 0.20385379 0.2285844
0003b0 53 f1 88 3c 9c 9b 27 3d 98 96 20 be e0 d2 88 be
       0.016716635 0.040919885 -0.15682447 -0.26723385
0003c0 ac a4 5e be f8 71 06 3e ec f6 68 be 2c 52 99 bd
       -0.21742505 0.13129413 -0.22750443 -0.07486376
0003d0 bb 34 f4 bd aa de 61 3e 52 df 26 3e 5c 48 c5 bd
       -0.1192412 0.22057596 0.16296127 -0.09632942
0003e0 43 d0 5f 3c ba 93 3b be 79 82 8c bb 5e b8 ee 3d
       0.013660493 -0.18318072 -0.0042880145 0.11656259
0003f0 5c a1 11 3e f0 03 24 be 30 c5 63 be e7 97 b4 bd
       0.1422171 -0.16017127 -0.2224319 -0.088180356

linear2.weight f4 [3, 256]
000000 3c 27 4d bd 4f 2e 20 bd ef 81 75 bd 6d 66 3d 3c
       -0.050086245 -0.039106663 -0.059938367 0.011560065
000010 bb b7 84 bd be c2 1b 3d 92 78 e2 3b e9 11 d8 3c
       -0.06480356 0.038027517 0.0069113458 0.026375728
000020 e7 f9 34 bc b2 b9 4b bc 30 d2 68 3c 39 dd 96 3c
       -0.0110459095 -0.01243441 0.014210269 0.018416034
000030 75 e9 3e 3d 8d 8d a1 3c 83 71 18 3c f3 b5 1c 3d
       0.04660936 0.019720817 0.009304407 0.038259458
000040 77 59 28 bd 86 bb 34 bd 8b 93 de 3c 83 e4 58 bd
       -0.041100945 -0.04412415 0.027169963 -0.0529523
000050 13 8a 95 3c a4 f3 4a bd 9d f1 45 bc e9 d1 4b bd
       0.018254315 -0.04954876 -0.012081531 -0.049760733
000060 87 df 39 3d 3e 71 29 3c 47 4c 00 bd a6 a0 6c bd
       0.045379188 0.01034194 -0.031322744 -0.057770394
000070 b0 fd d1 bb b0 e0 21 3d 54 7b 29 3c 3c 49 1d 3c
       -0.0064084157 0.03952092 0.010344345 0.00959998
000080 54 68 36 bd 1f 61 14 bd 3f ea 9f ba 9b b0 f5 3b
       -0.04453309 -0.036225434 -0.0012200548 0.0074978597
000090 ee 6a 17 3d 4a 54 a8 bc e2 ef 1c 3d 73 d4 6c bd
       0.03696721 -0.020548005 0.038314708 -0.057819795
0000a0 db 62 a5 3c 52 70 a7 bb 5e 83 29 bc b4 1f 90 bd
       0.02018874 -0.005109825 -0.010346262 -0.07037297
0000b0 69 89 00 3d 05 db a2 3c 01 73 1d 3c 3c fe 9b bb
       0.031381045 0.019879827 0.009609939 -0.0047605317
0000c0 d1 64 61 bd 3f e1 02 bd 78 ac ac 3c ba 5c be 3c
       -0.055027787 -0.031953093 0.021078333 0.023237575
0000d0 23 47 08 3d 0b f1 37 bd b8 b2 9c bc 7a 89 e7 bc
       0.033270966 -0.04490761 -0.019128188 -0.028263796
0000e0 2d 1e 15 3c fb d1 39 bd 7d c4 e1 3c b3 2c 54 bd
       0.009101433 -0.04536627 0.027559513 -0.05180044
0000f0 1a d0 3a 3c 01 a9 10 bc 1d 1f bf 3c 5c c7 b9 bc
       0.011402154 -0.008829356 0.023330266 -0.02267807
000100 0a c4 7e bd 1a 6e f4 bc eb 49 79 bc 7e cc 50 3c
       -0.062198676 -0.029837657 -0.015215377 0.012744067
000110 41 d2 6a 3c a8 cc cf 3c b0 29 40 bc 7f 01 8a bd
       0.014332355 0.025366142 -0.011728689 -0.067385666
000120 52 fd 5e 3c b2 23 92 bd 4c ed f3 3c e5 25 0c 3d
       0.013610201 -0.071357146 0.029776238 0.034215827
000130 14 4a 22 bd 80 27 35 3d 31 e2 df bc 1f dd 4a 3c
       -0.039621428 0.044227123 -0.027329536 0.012381821
000140 55 1b 83 bc bc 86 7c bb 9a aa 1c 3d 96 dc bb 3c
       -0.016004244 -0.0038532456 0.038248636 0.022932332
000150 d3 c7 f0 3c 04 7b 56 3b 21 26 fb bc 62 33 e4 bc
       0.029392159 0.0032727132 -0.03065783 -0.027856532
000160 b3 b4 08 3d 54 de 72 bd e4 be 9e b9 fa 2b e8 bc
       0.033375453 -0.05929406 -0.00030278333 -0.028341282
000170 30 d6 a0 3c 92 76 36 3b 0d 30 be 3c a6 7c 1d 3d
       0.019633383 0.002784167 0.023216272 0.038448952
000180 1b 9c 29 3c 38 41 ca 3c ab 6f 51 3d 27 21 9c 3c
       0.01035216 0.024689302 0.051131885 0.019058777
000190 c1 03 2e 3d 33 d2 e7 3a 2b a4 ec bc 57 5d 33 bd
       0.04248405 0.0017686546 -0.028886875 -0.043790188
0001a0 63 25 8a 3c 41 9e 1e bd b3 9d a9 3b c8 8c cc 3c
       0.01686353 -0.03872514 0.00517627 0.024969473
0001b0 d5 91 1b bd 18 41 90 3d da cc ee bc 91 f4 66 3d
       -0.037980873 0.07043666 -0.029150415 0.05638558
0001c0 14 b9 d1 3c 9b 30 07 bd 11 71 59 3d 28 02 0d bd
       0.025600947 -0.03300534 0.053086344 -0.034425884
0001d0 90 d2 a7 3c 54 1d 0a 3d e3 d7 69 bb e8 65 0b 3d
       0.020486146 0.033719376 -0.0035681657 0.034032732
0001e0 19 f3 3d bd 05 8b 71 3b 90 69 d9 3c e6 10 c1 ba
       -0.046374414 0.0036856544 0.026539594 -0.0014729768
0001f0 7e 81 ba bc 49 35 4b 3c 2a ed 4c 3c 45 97 41 bd
       -0.022766825 0.012402841 0.012507716 -0.047263402
000200 d2 84 2f 3c 79 26 b2 bc e9 8d b4 3b 0f b5 d2 bc
       0.010712819 -0.02174686 0.005510081 -0.025721101
000210 3e d6 cf bc eb 4b c7 3c d9 8c ae 3c 64 be 22 3d
       -0.025370713 0.024328193 0.021307396 0.039732352
000220 0f 1b bf 3b 27 a0 8d bd db 8a 85 3c d4 37 d4 3c
       0.005832083 -0.06915312 0.016301563 0.025905527
000230 b2 f6 1e bd 3c 04 ac 3b e7 79 05 3d 0e d4 0e bd
       -0.038809486 0.005249528 0.03258696 -0.0348702
000240 a2 e7 03 bd 15 32 99 3b 51 e2 34 bd 7f dc 7f bd
       -0.032203324 0.0046751597 -0.044161145 -0.06246614
000250 de bc a2 3c ad c6 4f 3d f3 6f e6 3b da 6d 31 bc
       0.01986545 0.05072658 0.0070323884 -0.010829413
000260 d8 c8 7e bc dc a2 b4 bb 8b 20 ba 39 6a 8d 28 3d
       -0.015550815 -0.0055125784 0.0003550093 0.041150488
000270 53 07 97 3c b0 7b 3e 3b d9 4f a1 bc e6 a6 92 3c
       0.01843611 0.0029065423 -0.019691395 0.017901849
000280 85 1b ed 3b 25 db 69 bd 0a ac 71 bd 13 b6 7c bd
       0.0072359466 -0.057093758 -0.05900196 -0.061697077
000290 9f 8e 77 3c e3 3e 41 bd a2 10 43 bc 0b 89 23 bb
       0.015109687 -0.047179114 -0.011905821 -0.002495351
0002a0 f4 42 13 bd 18 38 85 bc ca 37 6c bd 06 aa aa bc
       -0.035952523 -0.0162621 -0.057670392 -0.020833027
0002b0 9c f6 88 bc 6b 85 62 3c dc b6 e7 bc 9b 91 17 3d
       -0.016719155 0.013825755 -0.028285436 0.037004095
0002c0 79 67 7a 3c 0a 9d 3b 3d cb d1 1b bc a4 e0 59 3d
       0.015283459 0.04580406 -0.009510468 0.05319275
0002d0 94 b5 55 bb 3e e2 73 bd d9 9a c8 3c ce 19 09 3d
       -0.003260945 -0.059541933 0.0244879 0.033471875
0002e0 09 10 42 3b 9e 4e 48 3c b8 30 23 bc 44 6f b6 bb
       0.0029611608 0.012225775 -0.009960346 -0.005567463
0002f0 a7 62 89 bd e9 94 a1 3b a1 16 e1 3c 18 a1 2e 3d
       -0.067082696 0.0049310816 0.02747661 0.0426341
000300 ca f7 85 bd 68 88 46 3a cb e9 07 3d f5 a6 6d bd
       -0.06541403 0.00075734267 0.033181947 -0.05802055
000310 ec fb 03 bc bd 1d 2e 3d fe 6f 3d bd 03 13 31 bd
       -0.008055668 0.04250883 -0.046249382 -0.04323102
000320 12 f3 d5 3c e8 d6 0f 3c c8 f8 06 bb 06 e9 19 bd
       0.026116882 0.008779265 -0.0020595063 -0.037575744
000330 df fd 21 bb 02 8c 81 bd b6 ae 54 bd cc f0 fe 3c
       -0.002471797 -0.063255325 -0.05192443 0.03112068
000340 b9 e1 55 3d 80 1b 20 3c 1d 96 41 3d c0 9f 88 bd
       0.05221722 0.0097721815 0.0472623 -0.06671095
000350 dc df 4e 3d c3 9a 0d bd 56 17 98 bb ed 04 05 bd
       0.050506458 -0.03457142 -0.0046414537 -0.0324754
000360 61 45 04 3d 30 bc 03 bc 2d 99 ea 3c 21 39 24 3d
       0.032292727 -0.008040473 0.028637493 0.040093545
000370 4e 65 fc 3b 42 9c ba 3c 21 0f 60 3c 9d 18 07 3d
       0.007702506 0.022779588 0.013675482 0.032982457
000380 44 45 25 3c 6e 9a b1 bc 48 51 67 3d 47 c0 1f bd
       0.010087315 -0.021680083 0.056474 -0.03900173
000390 bc 77 22 bd 4d 37 6a 3c 6d fd 92 bc 25 8c 89 bd
       -0.03966497 0.014295411 -0.017943108 -0.067161836
0003a0 c1 ee e0 bc 15 53 00 bc 39 18 0a bd 7e 2e b3 3c
       -0.027457597 -0.007832308 -0.033714507 0.021872755
0003b0 ad 61 09 bd d4 ce 21 bc e1 42 a4 bc 48 be ba bc
       -0.033540417 -0.009875972 -0.020051422 -0.022795811
0003c0 c0 4d 8b bd f5 72 86 bd 73 b4 4f bd 57 2b 0b 3c
       -0.06801939 -0.06564895 -0.0507092 0.00849422
0003d0 77 83 2f 3d 24 7e 60 bd f8 6c c3 b9 4e 28 3c 3c
       0.042849984 -0.054807797 -0.00037274486 0.011484219
0003e0 80 39 c2 3c 81 c3 70 bd d4 d2 42 bd fa 5a eb bc
       0.023709059 -0.058780197 -0.047564343 -0.028729904
0003f0 e2 4d 52 bc 27 f4 a8 3c 8d ed 2c 3d af 3c 23 3d
       -0.0128359515 0.020624233 0.042218734 0.039852794

linear2.bias f4 [3]
000000 26 f4 cf 3c da 4b 10 bd 44 9d 2f 3d
       0.025384974 -0.035228588 0.04287459
